ai_model/scoring_model_weights.npz (npz, 2048 bytes, 1 tensors)

weights f4 [384]
000000 60 50 9d 3d c3 ba 0c bd 31 36 03 bd f1 1a ad 3b
       0.07681346 -0.034357797 -0.032034103 0.0052827527
000010 1c 08 95 3d 43 eb 22 3c a4 c7 56 3c a1 5d 98 3c
       0.07276937 0.009943786 0.0131091215 0.018599333
000020 ba fc b9 bc b3 f8 22 3d b3 44 5b 3d 09 51 92 3d
       -0.022703517 0.03978796 0.053532314 0.071443625
000030 71 ee bd 3d d2 fe 73 3b a0 6f b4 bc 37 91 6d bd
       0.09273995 0.0037230742 -0.022025883 -0.057999816
000040 d1 15 4f 3c 17 05 4f bd 33 13 05 bd ef d3 45 bd
       0.012639479 -0.050541963 -0.032489013 -0.04829782
000050 45 ec 3f bd a3 1c 20 3c 1d 1c 8a bc 95 19 db bc
       -0.046856184 0.0097724525 -0.016859109 -0.026745597
000060 21 84 9d 3d 2c 8b 29 bc d2 ba fc bc 28 f9 24 3d
       0.07691217 -0.010348123 -0.030850802 0.040276676
000070 b5 db 95 bd f6 a3 95 3b 9e b5 82 3d 84 b7 92 bd
       -0.073172964 0.004566665 0.06382297 -0.07163909
000080 5a 68 e6 3a 59 6c 0b bc aa 2e 46 3d 8f 1e 6c ba
       0.0017578707 -0.008509719 0.048384346 -0.0009007239
000090 27 bd d3 3c e8 ca c1 bc e3 7c 1b bc 6b 1d a0 bc
       0.02584703 -0.023656324 -0.0094902245 -0.019545278
0000a0 01 43 09 bd d1 6e 07 bc b5 e2 f4 bd 4f a2 38 3d
       -0.033511166 -0.008266167 -0.119573034 0.045076665
0000b0 be 24 8d 3c 54 5f a6 bd d9 63 c5 bc 59 2d 85 bb
       0.017229434 -0.08123651 -0.024095463 -0.0040642438
0000c0 c1 8a 00 bd 4b f2 0e 3d 65 80 6d bc 1d 2e 18 bb
       -0.031382326 0.034899037 -0.014495944 -0.0023220845
0000d0 58 6e 07 3d 72 57 15 3d 19 de 9f bb a2 47 8a bc
       0.033064216 0.036460347 -0.004878771 -0.01687986
0000e0 d1 12 92 bd 86 3f 4e bc e8 08 01 bd 00 b7 fe 3d
       -0.07132495 -0.012588387 -0.031502634 0.12437248
0000f0 3a be 1d 3d a4 91 cc bc 36 99 85 bc 5f b2 23 3d
       0.038511492 -0.02497179 -0.016308408 0.03996503
000100 24 e3 f7 3c 25 f4 37 bd 9a 93 3d bc 9d c9 f7 3d
       0.030259676 -0.04491057 -0.0115708355 0.120990016
000110 a2 5c 8a bd c5 f0 13 3d 6d f3 65 bd 94 73 81 bd
       -0.067559496 0.036118288 -0.056140352 -0.06320873
000120 6e 90 2a bd 5a 14 7a 3d 4d 64 0c bc 0f 3d a2 3b
       -0.041641645 0.061054565 -0.008568835 0.0049511264
000130 04 0d 8e 3b f4 16 53 bc 15 80 69 3d 81 17 60 3c
       0.0043350477 -0.01288389 0.057006914 0.013677479
000140 27 95 04 3d d6 b1 e3 3d 27 da b9 b9 fb ad 05 3d
       0.032368805 0.11117904 -0.00035448486 0.032636624
000150 2b 60 a9 bd 21 2f 0e bd aa cf 81 3d 1f 2d 2a 3d
       -0.08270296 -0.034712914 0.06338437 0.041546937
000160 00 6f 05 3c 2a 4c 6e bd a9 c0 94 bd 27 4d 85 bd
       0.00814414 -0.058178104 -0.072633095 -0.06508856
000170 cc 45 98 3d 3b 97 f3 3c de 43 fc 3b 34 b2 63 3d
       0.07435188 0.029735198 0.00769852 0.05558987
000180 8b eb d0 bd 62 06 35 3d 60 df 48 bb 2a 09 f4 bc
       -0.10201176 0.04419554 -0.003065072 -0.029789526
000190 9d 85 34 bd 3d 76 2c 3d 4c a9 5c bd f3 77 0a bd
       -0.044072736 0.04210495 -0.05387239 -0.0338058
0001a0 03 4e 46 bc a7 9f 1a bd 80 05 49 3d 9b fa e4 3d
       -0.01210356 -0.037749913 0.04907751 0.11180612
0001b0 ac 28 07 bd 01 43 1e bd 10 b4 e7 3a 3e 6b 5c bd
       -0.032997772 -0.03863812 0.0017677564 -0.05381321
0001c0 2a f1 ab bc c0 8b d0 bd 56 7f 1b 3d aa 9b 9d 3c
       -0.02098902 -0.10182905 0.037963234 0.019239265
0001d0 35 ee 4f 3d 26 1f c9 ba 4a f1 12 3d 5e 88 84 bc
       0.05076428 -0.0015344366 0.035874642 -0.016178306
0001e0 df 73 e8 bc 18 ae bd 3c c7 0e c8 bb bb e8 85 bc
       -0.028375564 0.023154303 -0.006105277 -0.016346326
0001f0 5b bf 5a bd f6 b2 c7 bc c3 0c a4 3d 3d b5 d0 08
       -0.053405147 -0.024377327 0.080102466 1.2561154e-33
000200 5a ea b5 bd 73 15 7b bd 3a 9d 6e 3c ed 4c dc 3d
       -0.0888259 -0.061299752 0.014563853 0.1075686
000210 da 5c f0 bc e9 5b 09 bd 1e 14 0b bd 67 b3 91 bb
       -0.02934115 -0.033534918 -0.033954732 -0.0044464353
000220 17 91 71 bd ec 7c a8 3d 85 27 5b 3d de 57 8a 3b
       -0.05897626 0.08226952 0.053504486 0.0042219004
000230 c5 0d 9a bc 38 cf 95 3c c2 28 a8 3c 1f bb 4f bd
       -0.018805394 0.018287286 0.020527247 -0.050715562
000240 c3 90 da bc 17 b7 85 3d e2 01 ed 3d 56 00 40 bc
       -0.026680356 0.06529062 0.11572625 -0.01171883
000250 76 31 ba bd d8 07 0c 3a 51 f1 56 3d f8 01 64 bd
       -0.09091465 0.0005341745 0.05247623 -0.05566594
000260 03 1d 1d 3d c6 70 44 bd 50 8e 32 bd 3a fc 9f bd
       0.038357746 -0.04795911 -0.04359275 -0.0781178
000270 46 20 04 3e 25 be 9b bc fa c7 44 3d fc 01 1a 3d
       0.12902936 -0.019011566 0.048042275 0.03759955
000280 c3 1b 4c bc eb 05 a5 bd c2 ee ac bc 1b 45 5b bc
       -0.012457791 -0.080577694 -0.021109942 -0.013383175
000290 f6 c5 d1 bc b1 f9 10 3d 40 94 0c 3d 04 07 1e 3d
       -0.02560709 0.035394374 0.03432107 0.03858091
0002a0 ac a6 13 bc 03 c5 50 3d 87 22 04 3d 1f 0e c4 bc
       -0.009011906 0.050969135 0.03225949 -0.023932515
0002b0 4e 61 ad bd f9 da d4 3c 05 ea 0d 3d a8 b1 e4 bc
       -0.08465825 0.02598332 0.034647007 -0.027916744
0002c0 96 25 6a 3d 94 a2 cb bd 3e 9f 95 3d ad 44 e9 3c
       0.05716475 -0.09943119 0.07305764 0.02847513
0002d0 ac 23 6e 3d d5 3c 34 bd 33 8b 50 3d 29 7a 6d 3d
       0.058139488 -0.044003326 0.050914 0.05797783
0002e0 c8 06 5a 3c 29 6b 55 bd 10 9a 95 3d f8 78 a9 3d
       0.013307281 -0.05210415 0.07304776 0.08275026
0002f0 62 5a 57 bd 25 47 fa bc 46 44 d8 3c c6 48 5a bc
       -0.05257643 -0.030551502 0.026399743 -0.013323015
000300 65 36 8f 3d f3 49 ad bb e5 df 1d 3b e1 e7 d0 3b
       0.06992797 -0.0052883564 0.002408975 0.0063752984
000310 bf 93 5a bd e4 3e ff bc 35 77 0d be 19 c5 ba bc
       -0.053363558 -0.031157918 -0.13815005 -0.022799062
000320 b3 9f ff 3d 02 80 6a 3d 95 6b d6 3c 0e 3f 2e bc
       0.12481632 0.057250984 0.026174346 -0.010635151
000330 22 d2 f3 3c 8a 37 45 3d ee 50 bd bb 17 fc 2f bd
       0.029763285 0.04814867 -0.00577747 -0.04296502
000340 b7 97 13 3d e6 f3 b4 bd 46 83 7a bc 6f 3d b4 3d
       0.03603336 -0.088355824 -0.015290087 0.0880078
000350 07 f6 f2 3c f0 64 66 bd 0d ab eb bd 77 91 29 3d
       0.02965833 -0.056248605 -0.11507235 0.04139849
000360 51 98 fd 3c 59 ce 9d 3d 68 bf 1f bd e8 57 0b 3d
       0.03095642 0.07705373 -0.0390009 0.03401938
000370 f5 c0 3f bd c8 3b 1b bd d2 1c e7 bc 77 16 69 88
       -0.046814878 -0.03789881 -0.028211985 -7.0142294e-34
000380 69 67 34 3d 86 a0 33 3d e8 34 6f bd fd e7 4d bd
       0.044043932 0.04385426 -0.058400065 -0.05027007
000390 33 07 89 bc e6 25 34 3d aa 09 11 bd 1d 4a be bc
       -0.016727066 0.043981455 -0.035409607 -0.0232287
0003a0 1a 3a 0a 3d 1a 9f 58 3d a7 7b fd bb c1 d8 63 bd
       0.033746816 0.052886106 -0.007735688 -0.055626635
0003b0 24 01 ef 3b 19 3a 9d bc 2e 31 e5 bd 05 e7 a7 3d
       0.007293837 -0.019192742 -0.11191021 0.0819836
0003c0 04 73 90 bc 75 a1 00 bd 8d 75 2d 3c 15 db 82 bd
       -0.017632969 -0.031403977 0.010587108 -0.06389443
0003d0 d8 35 6f bd 14 2c 24 3c 19 f6 ba 3d db 9d b9 3c
       -0.05840096 0.010020275 0.09128971 0.02265828
0003e0 e8 7b 9a 3d 83 b0 66 3c 02 ec a1 3d ae 99 81 bb
       0.075431645 0.01408017 0.07906343 -0.0039550876
0003f0 0f ce ab 3c 4f 07 93 bc 99 0c 86 bc 62 b6 de bd
       0.02097228 -0.017947821 -0.016363429 -0.108746305
